main-checkpoints/Q net params Checkpoint 2.pth (torch, 9056 bytes, 4 tensors)

net.0.weight f4 [128, 8]
000000 72 71 52 bf df 38 9c 3e b2 ff 7f bf f8 6c f8 3e
       -0.82204354 0.3051214 -0.99999535 0.48520637
000010 00 98 de 3f 12 d8 30 40 44 b3 3c c0 87 d6 2d c0
       1.7390137 2.763188 -2.9484415 -2.7162187
000020 96 35 aa 3e 56 fe 70 be 86 20 2c 40 ee 39 c6 bf
       0.33244008 -0.23534521 2.689485 -1.5486429
000030 31 04 0b 3d a2 de 85 be ff 7d 78 3d b2 1b 11 3f
       0.033939544 -0.26146418 0.060667034 0.56682885
000040 54 1a e8 bd 2b bd 0d 3f 28 30 cb be b0 de f0 3f
       -0.11333147 0.5536677 -0.39685178 1.8817959
000050 00 f8 d5 3f 65 fc a9 3f be 50 94 3f 4b 46 10 be
       1.6716309 1.328015 1.158714 -0.14089315
000060 dd 13 9d 3f e8 97 bb 3e 95 03 58 be 29 85 a7 bf
       1.2271687 0.36639333 -0.21095116 -1.3087512
000070 48 42 ea 3e f4 19 6f 3f 13 1d 0f c0 ab 93 02 c0
       0.45753694 0.93398976 -2.2361495 -2.040263
000080 37 2a d5 3e d1 20 0c be 6d 37 cf 3e 21 7f 9d bf
       0.4163377 -0.13684393 0.40471974 -1.2304422
000090 6a dd 5c 3f 70 53 95 3f ba 11 36 40 3b 0e 6b c0
       0.8627535 1.1666088 2.844832 -3.6727436
0000a0 97 5f 55 bd 39 75 ef bf 95 51 a4 3e 1e 47 bb bf
       -0.052093115 -1.8707649 0.32093492 -1.4631078
0000b0 30 8f 47 be d6 a9 b4 3f 7d d4 32 3f 45 68 77 c0
       -0.19488215 1.411433 0.6985548 -3.865739
0000c0 15 92 6e bd ff e4 43 3c 33 da a6 3e c7 5d eb 3d
       -0.058244783 0.011956452 0.32588348 0.11492496
0000d0 fd 56 11 c1 3a fa 09 bf 9d 6d ff 3e be 4e bb bc
       -9.083737 -0.5389744 0.49888316 -0.022864696
0000e0 a6 cb ba 3e 8f 2a a7 3e 59 fd af bf 8b 73 e2 bf
       0.36483496 0.32649657 -1.374919 -1.7691511
0000f0 e9 06 04 c0 ca 3b 77 bf 61 a2 3a c0 6b 55 3b c0
       -2.0629218 -0.96575606 -2.9161608 -2.9270885
000100 5d 5c 80 bd 94 79 ee 3c a5 40 7e 40 e7 a2 ea bf
       -0.06267617 0.029110707 3.9726956 -1.8330964
000110 d6 f1 95 3f 77 a8 db 3e 82 32 be be 1a 05 69 bf
       1.1714427 0.42901966 -0.3714791 -0.9102341
000120 59 7b 24 bc 8a 38 99 be ec 54 28 c0 80 42 1c bf
       -0.010039174 -0.29925948 -2.6301832 -0.6103897
000130 de 45 d2 3e 49 da 09 3f 15 68 b5 3f 7d 0f 9b bf
       0.4106893 0.538487 1.4172388 -1.2114102
000140 47 f6 a3 3f 81 bd 7f 3f 1d 89 93 bf 19 55 a8 bf
       1.2809533 0.99898535 -1.1526219 -1.315097
000150 b9 73 0b bf 7b cc 30 3f 95 a5 0a c0 a3 58 17 c0
       -0.54473454 0.6906201 -2.1663563 -2.364785
000160 75 ed db bf 61 91 88 3e 12 d7 54 c0 f6 b6 54 3f
       -1.7181841 0.26673415 -3.3256269 0.83091676
000170 33 04 1c be 4a db 12 c0 ca d9 6f c0 03 c7 e7 be
       -0.15235977 -2.2946343 -3.7476678 -0.4526902
000180 1e 65 57 3f ae b1 27 3f d1 a7 3f bf bc d7 84 bf
       0.8413867 0.6550549 -0.7486544 -1.0378337
000190 bb 46 a1 3c 20 f3 19 c0 cd d3 1b 3f 9a c5 46 bf
       0.019687047 -2.4054642 0.6087006 -0.77645266
0001a0 8a 48 5f 3d c7 3d b3 bc fd 8a b5 40 c1 e3 e3 3d
       0.054512538 -0.021880044 5.6732163 0.11127425
0001b0 9f 97 90 3e 00 34 ca be 69 2a 27 3f 41 0a ba 3f
       0.28240678 -0.39492798 0.6529909 1.4534379
0001c0 97 7a ae bd 1f 4f 07 be 60 ea 80 3e 09 80 b1 3e
       -0.08519476 -0.13213776 0.25178814 0.34667996
0001d0 4f 38 66 3d 36 a1 a3 bc f3 fa b2 3d d5 1d e7 bc
       0.056206044 -0.019974332 0.08739271 -0.028212467
0001e0 a5 5d 4f 3d 3e 45 b7 3d be d0 be 3f 30 d8 dc bf
       0.050626416 0.08948754 1.4907453 -1.7253475
0001f0 30 ba 82 3f fe 79 89 3f 3d e5 38 3f 96 89 37 c0
       1.021307 1.0740354 0.7222479 -2.8677726
000200 13 37 98 3f a7 16 b0 3e b0 8c 68 3f ef 61 7b 3f
       1.1891807 0.34392282 0.9083967 0.9819631
000210 54 b8 97 bf c1 7c 4a c0 00 b9 59 c0 87 14 8e 3f
       -1.1853127 -3.1638644 -3.4019165 1.1100014
000220 07 5a d6 bc e8 6b 82 be 1a 5d 14 40 a7 e2 a3 40
       -0.026165975 -0.2547295 2.3181825 5.1214175
000230 b8 18 c8 bc a3 10 22 3d 57 d1 93 3e cf 1d a9 be
       -0.02442585 0.039566647 0.2887065 -0.33030555
000240 84 13 24 3b e6 12 ff bc 3b 80 71 40 53 df 91 3f
       0.0025036046 -0.031136941 3.7734516 1.1396278
000250 e7 90 16 3f da f1 00 3f c7 72 07 c0 22 89 a7 bc
       0.58814853 0.50369036 -2.1163805 -0.020451132
000260 c3 ec 9a be 5d 1c e6 3e b6 3b c5 bf 84 93 5e 40
       -0.3025876 0.44943514 -1.5408847 3.4777536
000270 9e 8c 30 3f a3 39 32 40 03 4e 30 3f 62 d2 8b 3f
       0.68964565 2.7847679 0.68869036 1.0923579
000280 69 60 db be ef 27 3b 3e 26 c5 25 c0 4a 01 5b 3e
       -0.42846993 0.18276952 -2.590158 0.2138721
000290 fd 46 7e 3e 86 7a 36 c0 cd 38 6a c0 4f 14 59 3f
       0.24831767 -2.8512282 -3.6597168 0.84796613
0002a0 23 9c 04 3e 88 39 9b be ad 00 22 40 f6 34 07 c0
       0.12950186 -0.3031733 2.5312912 -2.1126075
0002b0 ed 12 0a 40 93 a1 8e bf 46 a1 b9 3e 0e eb 09 3e
       2.1574051 -1.1143059 0.36255854 0.13468572
0002c0 c6 60 17 bf 9d da 70 bf 3a 3e b7 bf f3 ac bc bf
       -0.5913204 -0.9408358 -1.4315865 -1.474028
0002d0 a5 62 71 bf 99 e9 29 40 d4 3f 23 3f c2 0c 59 3f
       -0.94291145 2.6548827 0.6376927 0.8478509
0002e0 70 21 54 bd bc 5c d4 bd 6c 32 24 40 40 e4 12 c0
       -0.0517897 -0.1036925 2.5655775 -2.2951813
0002f0 d7 f9 2b 40 c7 a2 5d bf 85 98 32 3e 32 ec 81 c0
       2.687124 -0.86576504 0.17440994 -4.0600824
000300 ba 15 0c 3f 8e 2c 9d bc 0c a1 15 c0 5d ef 72 40
       0.5472065 -0.019186284 -2.3379545 3.7958596
000310 c8 5e 17 40 7f 1b c5 bd 66 8a 4e 3f 6b de 7f 3d
       2.36516 -0.09624385 0.8067993 0.062467974
000320 e1 cd e5 3f 5d 1a 15 3f 94 e5 90 3f 67 b7 9a 3e
       1.7953454 0.5824335 1.1320062 0.3021805
000330 f0 b8 16 40 b5 f2 25 40 39 22 a8 3f 2f 74 12 c0
       2.3550377 2.5929387 1.3135444 -2.2883413
000340 7d c1 9c 3d e4 e7 24 be e0 83 d1 3d 03 22 46 bf
       0.076540925 -0.16104084 0.10230231 -0.7739565
000350 38 d6 9d 40 ba 8c 9e 3f 89 ac b4 bf e3 eb 53 c0
       4.9323997 1.2386696 -1.4115154 -3.3112724
000360 b6 6e 26 c0 6d b4 4f 3f cf 1c 95 bf c8 68 f9 3f
       -2.6005073 0.8113468 -1.1649417 1.9485102
000370 d4 1b 0c 3f 83 4f 1c 3f 75 54 27 be 3f cc 18 3f
       0.5472996 0.61058825 -0.16340812 0.59686655
000380 ff 88 5b 3c c2 23 e5 3d 1f 07 91 40 25 94 f4 3f
       0.013399362 0.11188461 4.5321193 1.910771
000390 2e f1 d1 be 03 c7 67 be e2 66 c9 3e 5a 55 2f c0
       -0.41004318 -0.2263451 0.39336306 -2.7395844
0003a0 55 fd 39 3e 79 13 4e 3f 19 c2 86 bf 03 1a a0 bf
       0.18163045 0.8049846 -1.0527984 -1.2507938
0003b0 43 0f b4 3d 0b c5 95 bc 49 e7 a1 bf f1 d4 55 c0
       0.087919734 -0.018282434 -1.2648708 -3.341122
0003c0 d7 a5 a9 3c 90 19 80 bd c8 89 a7 3f cf de 8b c0
       0.020708961 -0.06254876 1.3088923 -4.3709483
0003d0 6d 3f 11 bf 14 4b 6b 3e c2 17 41 c0 6d 75 b3 bf
       -0.56737405 0.22977859 -3.017075 -1.402021
0003e0 ea d6 db bc 55 25 99 bd 00 d9 19 40 ec ea 47 c0
       -0.026835877 -0.07477824 2.4038696 -3.1237135
0003f0 5e 6b de 3f 82 24 71 3f 2f a3 6b bf c8 f1 3c bf
       1.7376516 0.9419633 -0.92045873 -0.7380643

net.0.bias f4 [128]
000000 74 92 b9 bf c9 01 c4 3e 39 ce 06 3f b3 97 ec 3e
       -1.4497819 0.38282612 0.5265842 0.46209487
000010 49 cd 58 bf f6 1b 5a 3f 0e 98 45 3d 1d 0d a6 3d
       -0.8468824 0.85198915 0.048240714 0.0810797
000020 7c 04 9f 3d c1 ee 63 3d 9f 8f cb 3c b0 8a a8 3d
       0.07764527 0.055647615 0.024848757 0.082295775
000030 25 8e 55 bd 1b 3f f8 3a b4 7f 97 be b0 06 0c 3e
       -0.052137513 0.0018939705 -0.29589617 0.13674426
000040 cb 06 b0 bf c9 83 31 3d 49 c4 09 bc 97 e8 7e be
       -1.3752073 0.04333857 -0.008408614 -0.24893413
000050 99 81 8f bf 5a cb fe bd 03 1c cb be 01 a1 f6 3b
       -1.1211425 -0.1244113 -0.3966981 0.0075265174
000060 1c 07 a9 bf 9a eb e2 bd 86 6d e2 bc e7 db 2c bc
       -1.3205295 -0.11080094 -0.027640115 -0.010550476
000070 b0 c7 15 ba e6 11 38 bd 33 ec d8 3b 8b 90 ee 3c
       -0.00057136547 -0.044938944 0.006619954 0.029121658
000080 d6 ed eb 3e 3f 93 7b bf d9 32 e8 3e 74 c4 27 bb
       0.46079892 -0.98271555 0.45351294 -0.0025599273
000090 76 37 19 3f 34 dd be 3d a7 7a cc bd 02 b9 e9 bd
       0.5985025 0.09319535 -0.099843316 -0.114122406
0000a0 2b a9 85 3d 58 2b 1e 3e 73 34 11 be eb fe 87 be
       0.06526407 0.15446222 -0.14180164 -0.26561674
0000b0 26 4e 97 3e 71 b8 61 3f 24 6b 1c 3f ae 71 2d 3b
       0.2955181 0.8817206 0.61100984 0.0026465463
0000c0 72 7e 32 3e 76 90 cb 3f 20 46 cc 3e 46 ca f8 bd
       0.17431048 1.5903461 0.3989725 -0.121479556
0000d0 da b6 9b be 97 48 07 3d 82 5e 04 3f 77 04 68 be
       -0.30412942 0.03302821 0.5170671 -0.22657953
0000e0 52 6d 95 be dc 52 c2 3e b6 bc 45 3e ad 31 53 3f
       -0.29184967 0.37953842 0.19310269 0.82497674
0000f0 cd 37 38 3e 3d 26 b1 3b 23 4a ea 3e 63 01 88 bf
       0.17990036 0.0054061697 0.45759687 -1.0625423
000100 d9 c9 38 3e c5 09 a2 3f a3 18 83 3d 4f cd 06 3f
       0.18045749 1.2659231 0.064011835 0.52657026
000110 8b 9c 1d bd bd c6 2e 3f b3 7a 9a bd 81 81 d9 3d
       -0.03847937 0.68272 -0.07542934 0.10620404
000120 eb e5 11 be 38 0d 18 3e e1 61 c0 3e 9f 09 95 3e
       -0.14247863 0.14848793 0.37574676 0.29108903
000130 71 75 97 be 83 73 29 bc bf 52 33 3e 2c 58 e8 bc
       -0.29581788 -0.010342482 0.17512034 -0.028362356
000140 09 56 2e 3f 00 f9 da bd c7 c6 98 3e 74 d7 86 3e
       0.6810003 -0.10692024 0.29839155 0.26336253
000150 63 98 d5 be 63 0b 2b be 7e 2f ea 3e 50 f5 98 3e
       -0.41717824 -0.16703562 0.4573936 0.2987466
000160 d9 00 d0 3c c6 33 82 3e bb 88 b8 bb d1 88 b2 3e
       0.02539103 0.25430125 -0.005631534 0.34870008
000170 d6 5b c3 3c 7e 95 8d 3e 47 a7 35 3c 25 ae 7a 3c
       0.023847502 0.27653116 0.011087245 0.015300308
000180 b8 4b 7d 3e 1e fd 99 bf fe e7 94 3e 99 0b be 3d
       0.24735916 -1.203037 0.29083246 0.09279556
000190 d9 74 91 bf 3c 71 97 3d 46 28 1c bf 75 80 9b 3e
       -1.1363784 0.073946446 -0.6099895 0.30371442
0001a0 52 dc 60 3e 85 e5 0e 3d fe f2 1c bf b0 92 16 3d
       0.21959046 0.034886856 -0.61308277 0.036760986
0001b0 55 a1 30 3e 71 4f 06 be ed 3c 9d bc a9 77 d5 bd
       0.17249043 -0.13116242 -0.01919409 -0.10423214
0001c0 04 2a 0f 3f e2 1f c7 3e 8d 38 6a bf bc 04 b4 3e
       0.55923486 0.38891512 -0.9149254 0.35159862
0001d0 0d 5c 5d 3e 21 89 84 3e 74 87 82 be b4 85 d3 bf
       0.21617146 0.2588587 -0.25493968 -1.6525178
0001e0 45 53 82 3d 8f 33 c2 3e f9 25 a4 3e c2 92 2e be
       0.06363539 0.3792996 0.3206022 -0.17048171
0001f0 93 0b c0 3f 01 2c 28 be b6 a4 0f be c9 6b af bf
       1.5003532 -0.16423036 -0.14027676 -1.3704768

net.2.weight f4 [4, 128]
000000 bb 43 12 c0 f8 2c 42 bf 45 ce 79 bf f0 b6 56 3f
       -2.285384 -0.75849867 -0.9758037 0.8387289
000010 3c 49 56 c0 9c 33 e3 bf c5 49 90 40 07 6c 5f 3f
       -3.3482199 -1.7750125 4.509005 0.8727421
000020 ee 42 b6 bf 60 28 89 be 93 11 8d 3f 8b 6a 1c c0
       -1.4239175 -0.26788616 1.1020988 -2.4440029
000030 38 d8 82 3f c1 d6 34 40 af 81 a5 bb ab c7 b1 bf
       1.0222235 2.8256075 -0.00505086 -1.3889059
000040 fa fa 8c c0 97 71 1e 40 ef 74 9d 3f 78 c5 9f bf
       -4.405637 2.475683 1.230131 -1.2482138
000050 a1 c7 19 c0 94 35 4b 3f 65 e7 dd bf 1c 1b ec 3f
       -2.4028094 0.7937863 -1.7336241 1.8445773
000060 b0 0c 82 c0 9d c8 04 c0 34 01 e7 3f 0b a3 ae bf
       -4.064049 -2.0747445 1.8047242 -1.3643507
000070 6a 0c 2b 40 03 08 fa 3e 59 35 46 40 6c 74 2e 40
       2.6726327 0.48834237 3.097006 2.7258558
000080 77 59 f5 bf 69 95 2a c0 32 67 40 3f 85 0e ae 40
       -1.9167928 -2.6653693 0.75157464 5.4392724
000090 e5 86 94 3f a2 f0 1e 3f a4 9e d9 3f 13 96 18 3f
       1.1603667 0.62085927 1.7001538 0.59603995
0000a0 b4 4b 68 3f d5 55 c4 3e fb 60 a8 3d 18 e2 08 40
       0.90740514 0.38346735 0.082216226 2.1387997
0000b0 fb fa 06 3f 6f 33 bf bf 73 12 8a bf 7c bf 3a 40
       0.52726716 -1.4937571 -1.078688 2.9179373
0000c0 eb 25 54 bf 72 b1 0c 40 67 a0 03 c0 94 36 8f 3c
       -0.8287036 2.1983304 -2.0566652 0.01748208
0000d0 ec 40 3e 40 58 92 9e 40 ae d9 98 bf a6 4d 44 c0
       2.9727125 4.955364 -1.194143 -3.0672393
0000e0 25 7a 30 c0 e6 d5 5b 3f 67 ee 42 3f b2 7c 63 3f
       -2.757455 0.8587326 0.76145023 0.88862145
0000f0 1e ad 0c c0 06 7b c6 3f ab 46 c6 3f 56 84 af bf
       -2.1980662 1.5506294 1.5490316 -1.3712261
000100 c3 d1 1d 3f db dd 53 3f 65 6a e9 3f 60 ad bd bf
       0.61648196 0.827604 1.8235594 -1.4818535
000110 ce d7 37 40 f4 a8 b4 bf b0 a4 01 40 44 75 f6 bf
       2.8725467 -1.411406 2.0256767 -1.9254537
000120 1e 7c 3b 3e b9 12 00 c0 ef 41 80 3f 24 48 d4 3f
       0.18309066 -2.0011427 1.0020121 1.6584516
000130 73 5c 5f c0 73 c3 6d 40 63 30 b9 3f b0 ff 13 c0
       -3.4900177 3.7150543 1.4467891 -2.312481
000140 95 cb 84 3f a3 c2 02 3f e6 4f e9 bf af 4e 45 3f
       1.0374628 0.5107824 -1.8227508 0.77073187
000150 7d 27 f0 bf 67 e1 af bf ad b3 f6 be b3 45 63 3f
       -1.8762051 -1.3740662 -0.48183957 0.8877823
000160 5c 29 0d 40 fc 35 dd bf f6 99 60 40 d1 e4 84 3e
       2.2056494 -1.72821 3.509397 0.25955823
000170 fa 4c dc 3f 1a 80 a8 bf e0 99 13 c0 cd 6d ac 40
       1.7210991 -1.3164093 -2.3062668 5.3884034
000180 e6 1c d0 3f 67 27 74 c0 bc ac 22 c0 a1 5f 85 3f
       1.6258819 -3.814905 -2.5417929 1.0419809
000190 68 6f 15 c0 b0 a3 f5 3f 51 ee 6f c0 e1 8d 38 3f
       -2.3349247 1.9190578 -3.7489207 0.7209149
0001a0 87 50 c7 3e ea dd cd 3f 53 55 bb bf 4d 53 36 40
       0.38928625 1.6083348 -1.4635414 2.8488343
0001b0 86 48 89 3f 96 b6 25 3f e1 a1 8c 40 0e 0e 83 bf
       1.0725257 0.6473173 4.3947606 -1.0238664
0001c0 c3 12 39 be c2 4b da bf 47 39 15 c0 d6 b6 18 c0
       -0.18073563 -1.705437 -2.331621 -2.3861594
0001d0 a5 39 1f c0 0d 57 28 3f 78 4d ba bf e6 4c 62 40
       -2.4878933 0.6575783 -1.4554892 3.5359435
0001e0 da 72 1f 3f 5b f8 1a c0 73 45 17 3f 2d 89 a3 3f
       0.62284625 -2.4214084 0.59090346 1.2776238
0001f0 51 39 07 40 73 76 8b bf d1 02 8a 3f a1 e8 8e c0
       2.1128733 -1.0895523 1.078211 -4.465897
000200 5b dc 91 bf 28 4b 11 be b8 d0 84 bf 23 9c 42 3f
       -1.1395372 -0.14188826 -1.0376196 0.76019496
000210 6c e5 99 bf 3a fc b0 bf f0 39 6a 40 06 07 dd 3f
       -1.2023139 -1.3826973 3.6597862 1.7267768
000220 b5 88 dc be 7b 71 d6 be 2c 93 c5 3f c4 30 04 c0
       -0.4307305 -0.41883454 1.5435538 -2.0654764
000230 7e 17 61 3f 3d 49 59 40 ec 6f d1 3c 95 4c a5 3e
       0.8792647 3.395095 0.025566064 0.3228499
000240 e1 1f 32 c0 da 98 55 40 c2 5a aa bf 45 ca a6 bf
       -2.7831957 3.3374543 -1.3308947 -1.3030478
000250 fc 5e 27 c0 77 ca 3a 3f 76 72 c5 bf 93 e0 fd 3f
       -2.6151724 0.72965187 -1.5425556 1.983416
000260 ea 07 7c c0 6e 9b f3 bf 08 99 11 be 12 8e b3 bf
       -3.937983 -1.9031808 -0.14218533 -1.4027731
000270 33 f5 61 40 64 6f b1 3f 7f a8 10 40 d9 47 e0 3f
       3.5305908 1.3862119 2.2602842 1.7521926
000280 c4 d4 01 c0 60 54 2a c0 1e 64 1d 3f 2f d5 92 40
       -2.0286112 -2.6613998 0.6148089 4.5885234
000290 08 76 59 3f d9 14 16 40 31 9e ad 3f 8e f8 f5 3e
       0.84945726 2.3450224 1.3563901 0.48041195
0002a0 7d 9d 6a 3f c2 7f e8 3d be 10 d9 3e 32 5b 16 40
       0.9164656 0.11352493 0.42395586 2.3493161
0002b0 33 f3 41 3f 3d 30 8b bf 42 86 06 bf 0a b0 6d 40
       0.7576172 -1.0874096 -0.5254861 3.7138696
0002c0 51 af 9d bf 9e 5a 13 40 8a 24 a4 bf 54 28 85 bc
       -1.2319127 2.3024058 -1.2823651 -0.016254582
0002d0 e1 60 6a 40 b0 d7 94 40 b4 76 10 c0 9d 70 64 c0
       3.662163 4.651329 -2.257245 -3.5693734
0002e0 b5 eb 5e c0 a2 78 74 3f ee 1e 5a 3f 06 88 ee 3e
       -3.4831364 0.9549657 0.85203445 0.46588153
0002f0 e3 50 0d c0 12 59 bf 3f 39 48 10 40 5d 42 c6 bf
       -2.208062 1.4949057 2.2544081 -1.5489002
000300 15 31 64 3e e9 05 7a 3f 72 a7 3a 40 8e 95 de bf
       0.22284348 0.9766527 2.91647 -1.738939
000310 40 42 bb 3f 02 5c d6 bf 3f 3c c0 3f 7c 9a ec bf
       1.4629593 -1.6746829 1.5018386 -1.8484645
000320 ec 71 b7 3d 6e 5c a7 bf bb c6 63 3f 39 74 c3 3f
       0.08957276 -1.3075082 0.88975114 1.5269843
000330 62 48 7b c0 2a 98 45 40 3e 0f 89 3f 06 e7 ea bf
       -3.926293 3.0874124 1.0707777 -1.8351753
000340 3f 4a a7 3f a0 a3 1f 3f 3f b2 e5 bf c0 1a fb 3e
       1.3069533 0.62359047 -1.7945021 0.49043846
000350 5f d7 0e c0 f3 b1 f4 bf cd 39 08 c0 fe 16 65 3f
       -2.2318952 -1.9116806 -2.1285279 0.8948821
000360 f2 10 5f 40 36 5d f1 bf e4 75 f1 3f 64 87 bc 3e
       3.4854093 -1.8856571 1.8864102 0.36822045
000370 b4 f7 26 40 90 26 0c c0 3d 8d e5 bf 87 64 e9 40
       2.6088686 -2.1898537 -1.7933728 7.2935214
000380 b3 3a a0 3f 4c 94 66 c0 f0 3a 34 c0 99 2f d2 3e
       1.2517914 -3.6028013 -2.8160973 0.4105194
000390 d1 f8 c1 bf de a1 3a 40 ec f3 75 c0 f8 c6 9f 3e
       -1.5154058 2.9161296 -3.8430128 0.3120649
0003a0 26 11 08 3f 8c 47 06 40 87 33 13 c0 08 14 2f 40
       0.53151166 2.0981169 -2.30002 2.7355976
0003b0 77 f7 45 3f 6c 36 16 3f 9e 59 6b 40 8a 49 b9 be
       0.77330726 0.5867679 3.6773448 -0.36188918
0003c0 dd 4b 9f bf a9 37 ac bf bd cf 3f c0 38 fd ef bf
       -1.2445027 -1.3454486 -2.9970543 -1.8749151
0003d0 d0 8a 1c c0 d1 6d c4 3e 83 ce 28 bf 27 62 08 40
       -2.4459724 0.38365033 -0.6594011 2.1309907
0003e0 0a 1b a1 3f 16 47 bc bf b8 92 38 3f a2 84 9d 3f
       1.2586377 -1.4709194 0.72098875 1.2306101
0003f0 5a 51 ef 3f ff 56 03 c0 14 77 23 3f 5f 34 a8 c0
       1.8696702 -2.0521848 0.63853574 -5.256393

net.2.bias f4 [4]
000000 eb 5f d6 3e a6 35 00 3f f5 9b 7b 3e 80 4f c1 3e
       0.41870055 0.5008186 0.24571212 0.37755966
