main-checkpoints/Q net params Checkpoint 1.pth (torch, 9056 bytes, 4 tensors)

net.0.weight f4 [128, 8]
-0.493348 -0.26159066 -0.7047923 0.5261357 1.6931199 2.8526013 -2.8546126 -1.9764632
0.38576007 -0.10838013 2.2182405 -1.0213985 -0.74646366 -0.5666642 0.103560895 0.48447055
-0.29734477 0.54462063 -0.46517986 1.5496237 1.6110282 1.353599 1.2328618 -0.25370798
0.7231292 0.37540066 -0.3224787 -1.1606836 0.6301724 0.000897489 -1.1232083 -1.9336592
0.6590677 -0.21823601 0.7794548 -0.7211528 2.7787707 2.059536 2.5076003 -2.9430525
-0.22998102 -1.786661 0.54843885 -1.5218154 -0.25932544 1.7169944 0.1399364 -3.202143
-0.064791344 0.03814125 0.24960944 0.00774442 -9.134721 -0.642211 0.5983369 -0.07300068
0.15775618 0.063449025 -1.2253368 -1.7713221 -0.9103952 -0.27049455 -1.3146645 -2.859987
-0.020418957 -0.084404744 3.612415 -1.810837 0.23897782 0.021711208 -0.75315595 -0.37801138
0.035433114 -0.20862809 -2.8351097 -0.619386 0.80678546 0.40719467 1.7263087 -1.3636063
0.89787376 0.84892195 -0.8896479 -1.094577 -0.6010874 0.30236956 -0.87929773 -2.364785
-1.1787289 0.22953044 -3.2852356 0.8440069 -0.31552354 -2.830317 -4.050474 -0.711652
0.7141793 0.55675274 -0.8348434 -0.98342824 0.0030285183 -1.7908921 0.4809313 -0.47232646
-0.0036790208 0.039790183 5.6054597 0.12951802 0.46262202 -0.71852696 0.29763627 1.399159
-0.08519476 -0.13213776 0.25178814 0.34667996 0.056206044 -0.019974332 0.08739271 -0.028212467
0.01594284 0.2518742 1.412417 -1.7072219 0.60763633 1.0292065 0.56865203 -2.607873
0.60885954 -0.22106746 0.8625263 2.0212877 -1.2433122 -3.0692184 -2.6290877 1.3092664
-0.004879738 -0.14944275 2.2895381 4.1832056 -0.047320716 0.09148071 0.0038050995 -0.070913844
0.007770816 0.07757724 3.5598254 1.0548573 0.47911978 -0.07694615 -2.409052 -0.0067036096
-0.22342753 0.55554944 -1.1941024 3.4240606 1.2873911 1.8756431 1.2001355 1.2269878
-0.22441962 0.14932147 -2.0785859 0.5890066 -0.2680383 -3.432084 -4.2150593 0.99726284
0.117857955 -0.25129986 2.2456055 -2.0543337 1.7223585 -1.1711835 0.10276223 -0.020770514
-0.5786898 -0.81194973 -1.2407949 -1.2884784 -0.06906626 2.722601 0.58175397 0.70045567
-0.045651466 -0.15530336 2.156827 -2.317395 2.6762102 -1.055649 0.0987463 -4.0600824
0.34516647 -0.050559834 -2.397987 2.8291638 1.9683112 0.14247438 0.71434677 0.05989147
1.3803734 0.55602676 1.5300816 0.2962181 2.1530383 3.0039527 1.510357 -2.4677002
0.15082371 -0.13619311 0.004219701 -0.48858616 4.426474 0.133754 -1.2167295 -3.29153
-2.2124727 0.7801818 -0.8644928 1.6435387 0.4436299 0.20532162 -0.19069326 0.30707443
-0.040867068 0.045258947 4.0040727 1.419422 0.35455754 -1.11181 0.14311934 -2.1876237
0.024429776 0.53995895 -0.9697326 -1.0508835 0.27729613 -0.17825334 -0.7076399 -3.341122
0.017205779 -0.060418967 1.2389504 -4.1773334 -0.14466047 0.6144292 -1.8015587 -0.5613249
0.004707211 -0.070162326 2.3469772 -2.9816272 1.9408244 0.445502 -0.65897363 -0.12914559
00000000: 1c98 fcbe 36ef 85be 456d 34bf d4b0 063f
00000010: 27b8 d83f 0591 3640 f9b1 36c0 bffc fcbf
00000020: 5882 c53e 67f6 ddbd a7f7 0d40 30bd 82bf
00000030: 3e18 3fbf e810 11bf bc17 d43d 860c f83e
00000040: 933d 98be 426c 0b3f 0e2c eebe 125a c63f
00000050: 2c36 ce3f bb42 ad3f 6ace 9d3f 03e6 81be
00000060: ff1e 393f 8434 c03e ee1b a5be 4891 94bf
00000070: fa52 213f 7845 6b3a 4ac5 8fbf 2582 f7bf
00000080: a9b8 283f 4379 5fbe 5a8a 473f 789d 38bf
00000090: 61d7 3140 70cf 0340 867c 2040 f95a 3cc0
000000a0: 2580 6bbe 4fb1 e4bf 7d66 0c3f d9ca c2bf
000000b0: 4ec6 84be 79c6 db3f 7d4b 0f3e e9ef 4cc0
000000c0: 53b1 84bd 003a 1c3d 9e99 7f3e e7c4 fd3b
000000d0: d127 12c1 f167 24bf 9b2c 193f 6181 95bd
000000e0: d68a 213e 90f1 813d d6d7 9cbf afba e2bf
000000f0: a90f 69bf 437e 8abe ed46 a8bf 070a 37c0
00000100: a845 a7bc 65dc acbd cf31 6740 82c9 e7bf
00000110: 9ab6 743e b4db b13c d4ce 40bf b58a c1be
00000120: 5022 113d 9aa2 55be 7072 35c0 1590 1ebf
00000130: 7e89 4e3f d27b d03e aff7 dc3f a78a aebf
00000140: 0edb 653f f352 593f f7bf 63bf 191b 8cbf
00000150: dde0 19bf 2fd0 9a3e a819 61bf a358 17c0
00000160: 97e0 96bf 070a 6b3e 4d41 52c0 d610 583f
00000170: 4d8c a1be ea23 35c0 7c9d 81c0 d32e 36bf
00000180: 74d4 363f 5987 0e3f 4cb8 55bf f4c1 7bbf
00000190: 1b7a 463b f43b e5bf a13c f63e c6d4 f1be
000001a0: ba1b 71bb 08fb 223d ed5f b340 5fa0 043e
000001b0: cbdc ec3e 62f1 37bf c863 983e a417 b33f
000001c0: 977a aebd 1f4f 07be 60ea 803e 0980 b13e
000001d0: 4f38 663d 36a1 a3bc f3fa b23d d51d e7bc
000001e0: 8f9a 823c a8f5 803e 15ca b43f 3f86 dabf
000001f0: 0e8e 1b3f 0abd 833f 2e93 113f 64e7 26c0
00000200: 38de 1b3f 825f 62be 86ce 5c3f c75c 0140
00000210: db24 9fbf 136e 44c0 f942 28c0 0b96 a73f
00000220: 36e6 9fbb 8507 19be cb87 1240 d2dc 8540
00000230: 5ed3 41bd 3d5a bb3d fa5e 793b 473b 91bd
00000240: 54a2 fe3b d1e0 9e3d 2ed4 6340 9005 873f
00000250: 304f f53e f195 9dbd e82d 1ac0 f4a9 dbbb
00000260: 30ca 64be 7d38 0e3f 59d8 98bf cf23 5b40
00000270: 3bc9 a43f 1315 f03f 0a9e 993f f00d 9d3f
00000280: 42ce 65be bae7 183e 8d07 05c0 23c9 163f
00000290: 513c 89be 44a7 5bc0 c4e1 86c0 9e4c 7f3f
000002a0: 835f f13d 60aa 80be 00b8 0f40 347a 03c0
000002b0: 3e76 dc3f 57e9 95bf 0175 d23d ed26 aabc
000002c0: 0425 14bf f0db 4fbf 5ed2 9ebf dcec a4bf
000002d0: 9c72 8dbd 183f 2e40 d4ed 143f 1051 333f
000002e0: 08fd 3abd d807 1fbe 7409 0a40 3350 14c0
000002f0: 0747 2b40 821f 87bf 803b ca3d 32ec 81c0
00000300: a9b9 b03e d417 4fbd 9e78 19c0 0511 3540
00000310: 9ff1 fb3f cee4 113e 6edf 363f c250 753d
00000320: 13b0 b03f c557 0e3f b7d9 c33f e6a9 973e
00000330: 61cb 0940 c340 4040 6153 c13f cdee 1dc0
00000340: 8871 1a3e 3576 0bbe 6b45 8a3b f727 fabe
00000350: ada5 8d40 cff6 083e cbbd 9bbf 6da8 52c0
00000360: 2799 0dc0 ffb9 473f 664f 5dbf 7a5f d23f
00000370: 7523 e33e d53f 523e 1845 43be dc38 9d3e
00000380: 3a64 27bd 7261 393d 5d21 8040 9faf b53f
00000390: 9188 b53e ca4f 8ebf e08d 123e 0702 0cc0
000003a0: f420 c83c c03a 0a3f 6540 78bf 5a83 86bf
000003b0: c2f9 8d3e 0b88 36be e327 35bf f1d4 55c0
000003c0: 22f3 8c3c e179 77bd ed95 9e3f b7ac 85c0
000003d0: e021 14be 3b4b 1d3f 7a99 e6bf fdb2 0fbf
000003e0: f33e 9a3b 44b1 8fbd e034 1640 fbd2 3ec0
000003f0: ef6c f83f d718 e43e 7fb2 28bf be3e 04be

net.0.bias f4 [128]
-1.1078578 0.38000822 0.31415397 0.31325626 -0.8092795 0.8495258 0.02865024 0.092430085
0.09642781 -0.019951254 -0.0767625 0.20726849 0.009382839 0.001301507 -0.29589617 0.015319435
-0.9144074 0.05840686 -0.016691435 -0.22596054 -1.0338813 -0.07658091 -0.4135011 0.025635192
-1.1418273 0.0119283125 0.107138045 0.053937048 0.014844552 0.033980355 0.020605423 -0.021434253
0.3266141 -0.6792635 0.45504963 -0.005079861 0.62771815 0.077111 -0.17232953 0.048828166
0.013039637 0.33657977 0.05355985 -0.4093011 0.46558875 0.71070844 0.6352236 0.00353242
0.2202631 1.5183759 0.4079106 -0.12147758 -0.26986933 0.022303123 0.39143878 -0.25721037
-0.22411518 0.57589763 0.20816725 0.8522925 0.13542572 -0.030513464 0.3160916 -0.70113856
0.15997234 1.2297866 0.013374326 0.3433804 -0.16592665 0.52297354 -0.042672914 0.027880592
0.040984463 0.1269973 0.3000887 0.15970378 -0.40353438 -0.0030570838 0.07116727 -0.017740974
0.6453613 -0.093122184 0.15778388 0.33809587 -0.36862668 -0.011918586 0.3138992 0.27892268
0.05254852 0.17389764 -0.007997044 0.41199252 0.008083398 0.26771438 0.11234689 -0.0047560255
0.06806569 -1.1816647 0.19214869 0.25312263 -0.82859015 0.021659136 -0.337768 0.36175936
0.28671294 -0.12902622 -0.4726239 0.021368701 0.049679976 0.033949755 0.0001585615 -0.036170546
0.49298415 0.36962107 -0.6169577 0.33578458 0.2406088 0.28237692 -0.26683328 -1.5887133
-0.0014830802 0.25167853 0.22979271 -0.057062585 1.395329 -0.23208356 -0.10855541 -1.1705058
00000000: 49ce 8dbf 7090 c23e cad8 a03e 2063 a03e
00000010: f12c 4fbf 867a 593f e8b3 ea3c fc4b bd3d
00000020: f27b c53d d070 a3bc a835 9dbd 313e 543e
00000030: 7bba 193c 5497 aa3a b47f 97be 5efe 7a3c
00000040: 9a16 6abf 083c 6f3d 7abc 88bc 3362 67be
00000050: 3956 84bf 74d6 9cbd 6bb6 d3be e500 d23c
00000060: 6627 92bf f86e 433c 316b db3d 18ed 5c3d
00000070: 9036 733c fc2e 0b3d b4cc a83c e396 afbc
00000080: f739 a73e 36e4 2dbf 44fc e83e f674 a6bb
00000090: 23b2 203f 5fec 9d3d 2777 30be 0b00 483d
000000a0: 34a4 553c 2f54 ac3e 9361 5b3d ea8f d1be
000000b0: a661 ee3e fdf0 353f 049e 223f 2c80 673b
000000c0: a68c 613e 245a c23f a8d9 d03e 3dc9 f8bd
000000d0: 502c 8abe 0ab5 b63c aa6a c83e 14b1 83be
000000e0: 737e 65be 076e 133f cc29 553e d72f 5a3f
000000f0: 0aad 0a3e 5ff7 f9bc c2d6 a13e d17d 33bf
00000100: cacf 233e a669 9d3f fd1f 5b3c 8ecf af3e
00000110: ade8 29be 98e1 053f cbc9 2ebd d765 e43c
00000120: 53df 273d 950b 023e 3aa5 993e 6389 233e
00000130: 0f9c cebe 5b59 48bb 25c0 913d 8555 91bc
00000140: 6636 253f d8b6 bebd 1992 213e e71a ad3e
00000150: a3bc bcbe 2c46 43bc 65b7 a03e f4ce 8e3e
00000160: 1e3d 573d 3912 323e 0906 03bc aff0 d23e
00000170: 3b70 043c dc11 893e 2016 e63d 6fd8 9bbb
00000180: 0666 8b3d ca40 97bf a0c2 443e 4a99 813e
00000190: 7c1e 54bf 806e b13c edef acbe 8638 b93e
000001a0: 0acc 923e 731f 04be c3fb f1be 6a0d af3c
000001b0: 3b7d 4b3d e60e 0b3d 8743 2639 9127 14bd
000001c0: 6b68 fc3e f93e bd3e f1f0 1dbf f5eb ab3e
000001d0: 2762 763e b593 903e 5f9e 88be f55a cbbf
000001e0: ea63 c2ba 02dc 803e c84e 6b3e 75ba 69bd
000001f0: 249a b23f 50a7 6dbe 4c52 debd 22d3 95bf

net.2.weight f4 [4, 128]
-2.7743347 -0.57998407 -0.9335261 0.51835376 -2.7594707 -1.7311124 4.568039 0.72966677
-1.2023249 -0.25131688 0.9774504 -2.273073 0.7049036 2.8386862 -0.00505086 -1.3372965
-2.983308 1.9841373 0.8187442 -1.2564589 -2.7049255 1.0052613 -1.2426878 1.5624765
-2.8096178 -1.9875407 1.6075906 -0.9666542 2.22609 0.38905427 2.9340649 2.4561152
-1.596835 -2.660719 0.7829915 5.411695 1.1193198 0.6766218 1.5836507 0.6712307
0.80598956 0.3531855 0.23008142 1.6982847 0.39729446 -1.1348454 -1.1649865 3.3411777
-0.7904068 2.3031037 -2.041321 0.01748208 2.413801 4.076101 -1.0984409 -3.071112
-2.7636197 0.96614563 0.6207942 0.95278627 -2.0779693 1.2568258 1.359124 -1.2860212
0.5028466 0.788954 1.7844403 -1.1012477 1.5458997 -1.2913777 2.0728047 -1.8082188
0.13973016 -1.7750283 0.7223333 1.3010935 -3.2968483 3.47653 1.4018089 -2.144862
0.90539974 0.5188426 -1.6461167 0.6230711 -1.6884377 -1.2880718 -0.36574492 0.524676
3.130564 -1.7583132 2.9230642 0.3161166 1.5398598 -1.4194885 -2.1570795 5.4440575
1.6598552 -3.2635365 -2.4732392 1.07588 -2.3208504 1.7914337 -3.5939004 0.5510691
0.28989246 1.2365319 -1.3838316 2.8472917 0.9898091 0.66691303 3.9015362 -0.97746336
-0.09759591 -1.52479 -1.6893433 -2.3883917 -1.9187726 0.5015608 -1.0784392 2.7473223
0.4846058 -2.3590555 0.43191123 1.3446612 1.9910674 -1.4029574 1.0292157 -4.2997527
-1.4067472 -0.10436675 -1.2248303 0.5237547 -1.6553402 -1.4782751 3.699741 1.1404554
-0.41878244 -0.3578431 1.3218796 -2.2350056 0.82476324 3.2095547 0.025566064 -0.051664717
-2.6693544 3.0896912 -1.4045196 -1.4670553 -2.7273088 0.79783994 -1.4424819 1.8956776
-2.4546452 -2.133741 -0.12290997 -1.3815905 3.0113108 0.54333174 2.0344005 1.7223599
-1.8821316 -2.9622943 0.6629351 4.641254 0.8996257 2.1413705 1.3504174 0.43673167
0.9886818 0.18888003 0.3424394 1.479583 1.0857514 -0.79027444 -0.6769584 3.6888182
-0.90596604 2.2855506 -1.4358855 -0.016254582 3.0563712 3.9325624 -2.3541222 -3.669195
-3.373736 0.94235617 0.695614 0.507868 -2.4104865 1.361539 2.216562 -1.1774261
0.09207508 0.9173563 3.0064495 -1.3274413 0.8469483 -1.9567621 1.5822144 -1.2350047
0.4190922 -1.5582589 0.8101625 1.3049184 -3.4471266 2.8579402 0.9547703 -1.9313642
1.129031 0.769214 -1.7349509 0.66455364 -1.5452679 -1.286052 -1.8165685 1.0346771
3.3524756 -1.7090864 2.7558098 0.5537865 2.061274 -1.8650414 -1.5134828 6.978868
1.269931 -3.9790459 -2.1973233 0.5966434 -1.0411416 2.5470898 -3.6174853 0.36591557
0.68267435 1.663152 -2.2067342 2.69021 0.6766291 0.31912276 3.3923647 -0.2706712
-1.074101 -1.4961799 -2.5331388 -1.7147084 -2.0717564 0.5156584 -1.0402124 3.0277064
1.3520346 -1.3550587 0.6333632 1.182212 1.8484949 -1.6807652 0.7186761 -4.9470563
00000000: b38e 31c0 d679 14bf 91fb 6ebf d5b2 043f
00000010: 2b9b 30c0 1795 ddbf 602d 9240 71cb 3a3f
00000020: c8e5 99bf 9bac 80be 303a 7a3f 077a 11c0
00000030: 9074 343f 09ad 3540 af81 a5bb 882c abbf
00000040: 85ee 3ec0 36f8 fd3f 3899 513f a5d3 a0bf
00000050: 801d 2dc0 67ac 803f 6510 9fbf 3bff c73f
00000060: c7d0 33c0 bc67 febf 87c5 cd3f a676 77bf
00000070: 4278 0e40 1f32 c73e b8c7 3b40 fe30 1d40
00000080: 1765 ccbf 3849 2ac0 2272 483f 9b2c ad40
00000090: df45 8f3f 1637 2d3f 11b5 ca3f c6d5 2b3f
000000a0: 5555 4e3f bbd4 b43e 779a 6b3e 6561 d93f
000000b0: 2e6a cb3e 9d42 91bf 471e 95bf dbd5 5540
000000c0: 1a58 4abf 0d66 1340 01a5 02c0 9436 8f3c
000000d0: b77b 1a40 6b6f 8240 b699 8cbf 198d 44c0
000000e0: 25df 30c0 5255 773f 5eec 1e3f cde9 733f
000000f0: 73fd 04c0 abdf a03f c6f7 ad3f 589c a4bf
00000100: 8eba 003f e4f8 493f 8a68 e43f aff5 8cbf
00000110: 0be0 c53f dd4b a5bf d5a8 0440 b773 e7bf
00000120: 6c15 0f3e 2134 e3bf d6ea 383f 3b8a a63f
00000130: 90ff 52c0 787f 5e40 796e b33f 6b45 09c0
00000140: 47c8 673f ded2 043f f4b3 d2bf 9681 1f3f
00000150: ba1e d8bf 89df a4bf eb42 bbbe 2b51 063f
00000160: 295b 4840 6810 e1bf 7c13 3b40 09da a13e
00000170: 201a c53f cdb1 b5bf 970d 0ac0 b835 ae40
00000180: 2376 d43f c8dd 50c0 8d49 1ec0 70b6 893f
00000190: d088 14c0 b34d e53f 7702 66c0 dd12 0d3f
000001a0: c96c 943e ad46 9e3f 6521 b1bf 073a 3640
000001b0: 2164 7d3f d0ba 2a3f c5b2 7940 0a3b 7abf
000001c0: 5de0 c7bd 522c c3bf 673c d8bf 69db 18c0
000001d0: 579a f5bf 4a66 003f 4c0a 8abf 21d4 2f40
000001e0: 401e f83e c4fa 16c0 7823 dd3e dc1d ac3f
000001f0: 4cdb fe3f 1c94 b3bf 57bd 833f 9397 89c0
00000200: 4b10 b4bf 3cbe d5bd 3dc7 9cbf ca14 063f
00000210: 30e2 d3bf 1e38 bdbf 8ec8 6c40 71fa 913f
00000220: a76a d6be 3637 b7be 5a33 a93f 550a 0fc0
00000230: af23 533f 5869 4d40 ec6f d13c 629e 53bd
00000240: b4d6 2ac0 80bd 4540 4cc7 b3bf 78c8 bbbf
00000250: 3a8c 2ec0 3d3f 4c3f 3fa3 b8bf 90a5 f23f
00000260: e818 1dc0 368f 08c0 39b8 fbbd f5d7 b0bf
00000270: 51b9 4040 ca17 0b3f 9e33 0240 4a76 dc3f
00000280: b0e9 f0bf 3b96 3dc0 1db6 293f 2785 9440
00000290: df4d 663f 370c 0940 7ada ac3f 4b9b df3e
000002a0: 401a 7d3f c469 413e 3854 af3e fa62 bd3f
000002b0: e7f9 8a3f 6d4f 4abf 254d 2dbf 9915 6c40
000002c0: 64ed 67bf 7646 1240 19cb b7bf 5428 85bc
000002d0: 969b 4340 1aaf 7b40 f0a9 16c0 17d4 6ac0
000002e0: 4aeb 57c0 413e 713f c213 323f a303 023f
000002f0: 6945 1ac0 e946 ae3f 27dc 0d40 e6b5 96bf
00000300: dc91 bc3d ddd7 6a3f ab69 4040 99e9 a9bf
00000310: 9bd1 583f 2e77 fabf 0086 ca3f a214 9ebf
00000320: 4193 d63e 0775 c7bf cf66 4f3f 9107 a73f
00000330: b99d 5cc0 7ee8 3640 d46b 743f f136 f7bf
00000340: 1684 903f 35eb 443f df12 debf 3020 2a3f
00000350: 57cb c5bf 5a9d a4bf 5185 e8bf 4d70 843f
00000360: f68e 5640 58c3 dabf 305f 3040 f4c4 0d3f
00000370: eaeb 0340 adb9 eebf ceb9 c1bf e352 df40
00000380: 198d a23f b0a8 7ec0 f2a0 0cc0 9fbd 183f
00000390: 2144 85bf 8503 2340 e184 67c0 4959 bb3e
000003a0: bfc3 2e3f 2ae2 d43f 223b 0dc0 672c 2c40
000003b0: 9137 2d3f 0f64 a33e 811c 5940 6a95 8abe
000003c0: 247c 89bf d382 bfbf f21e 22c0 917b dbbf
000003d0: a897 04c0 3002 043f ae25 85bf f1c5 4140
000003e0: 780f ad3f 9072 adbf 1724 223f b952 973f
000003f0: 7b9b ec3f 5023 d7bf 28fb 373f 494e 9ec0

net.2.bias f4 [4]
0.44027254 0.49200338 0.3007588 0.31783116
00000000: 676b e13e dee7 fb3e 0ffd 993e c4ba a23e
