main-checkpoints/Q net params Checkpoint 4.pth (torch, 9056 bytes, 4 tensors)

net.0.weight f4 [128, 8]
00000000: 036c b23f 458f f4be 8ad9 a2bf ab2e 8c3f
00000010: becb de3f 1ee8 5c40 dcb2 46c0 5c0b 5ac0
00000020: 25cb cd3e 3ecb 893e 7ef2 5040 5281 37c0
00000030: 363b 883e 5569 7b3d 93f3 e03d ac86 bd3e
00000040: 47c1 b7be 4e84 b23f 0b47 9ebe 8c21 1f40
00000050: c24f a63e 5be8 653f 0d41 813f c6cf 213e
00000060: 9fb2 c53f e3a8 573f 050c 3cbe e7ce dabf
00000070: b57b 0bc0 40c6 463f 9cba 1dc0 847a 2ec0
00000080: c27f d53e 40bb 603f 1d22 08bd a1ca 58bf
00000090: 49c8 70be 9958 81bf 03a5 2840 2489 7dc0
000000a0: 1ed6 29be 8751 21c0 1a60 b83e e799 aebf
000000b0: b343 433f 48b8 ab3f 0398 0f3f cc31 7bc0
000000c0: 5062 0fbd 69b5 9a3d 2804 5d3e 271c a8bd
000000d0: c1a4 1cc1 bd4f 23bf aae0 c83e b2bc 043e
000000e0: 811b e83e 45a6 ae3f f95b 04c0 e439 cebf
000000f0: 4795 debf 67c3 f8bf 82df abbf 0fb2 b5bf
00000100: 7b2b d6bd d379 323f 3e22 5b40 83b6 29c0
00000110: 7f7b ee3f 8386 7d3f 1ef2 95be bde0 a1bf
00000120: b6a3 ffbe c994 c9bd 44e4 0cc0 ab9e a6bf
00000130: 66ea 373f 285f 503f 84e9 0640 4f8a c2be
00000140: a561 a33f 2a2a c63f cdaf a5bf a602 e5bf
00000150: dbc7 70bf a096 363f 9ee3 17c0 e254 17c0
00000160: 73d8 28c0 a5c1 a63e 1dc2 31c0 43d6 1e3e
00000170: 8a91 b43e 5ee0 04c0 1a14 bdc0 bd29 2f3e
00000180: c5dc 0240 e3ca 883f 702f d7bf 3b09 bebf
00000190: f9e1 643f 6407 2ac0 a068 c73e 9fcf 2abe
000001a0: e9c6 9c3e 659d 95be 42d2 c240 bcb5 1fbe
000001b0: ce30 9dbe 39d6 f43d d801 913f 6562 e63f
000001c0: f976 aebd 4a51 07be 54e7 803e d17c b13e
000001d0: 703a 663d 829d a3bc e6f9 b23d d51d e7bc
000001e0: 0854 ae3d b18a f63d 74df ff3f 4aad edbf
000001f0: da0d 823f 0524 3abf abbc 183f e75d 44c0
00000200: b628 0e3f 9239 9cbf dacf f23f c0fb 4cc0
00000210: dc02 5a3f 6817 7ec0 0151 cac0 e1d1 863e
00000220: 744e 8abb 1cf3 bd3d ecb6 c13f 30c4 d240
00000230: 0b19 a7bb 8fd9 8eba f08b 053f 2f1d 0abf
00000240: 1fee a2be 6b9e 9d3c e4b6 8a40 e8c5 8b3f
00000250: 918c 963e 16ed e63e c202 12c0 e75a 05be
00000260: aa67 44be 2c2d 2ebf efec 39c0 a892 cd40
00000270: 191b 9c3e d245 ad3f 41a0 613e 481b e63f
00000280: ccfa 22c0 6aca 2d3f 934e 1bc0 f87d 4a3f
00000290: a877 5640 ae1d 9fbf 33f3 8ac0 3c63 e03f
000002a0: 876a 643f 52c6 a2bd c7a6 2040 22e1 02c0
000002b0: 326d b43e e29f afbf 9aca 353f dc7f 783f
000002c0: d6df 52bf 2ad2 54bf 277e 91bf f7b6 98bf
000002d0: eeed a93e 6efb 0c40 1f05 6b3f 1707 933f
000002e0: 5be9 4dbf 04c9 85be d84d 4240 537d 07c0
000002f0: b5e9 4440 abd5 ee3e 30c0 84bf 38ed 81c0
00000300: 4002 49be fcdf 1ebe 78f4 13c0 211d 2940
00000310: 9c03 0e40 486c 313f a14b 7d3e 46d3 5e3f
00000320: e815 2340 f881 163e 99d1 8e3f ae15 bfbd
00000330: fd99 0940 3b36 0b40 2c5f f63f 9844 1ac0
00000340: 9552 5d3f 657a 0d3d 8f2a 8bbe b9cc 59bf
00000350: 4d0b a740 65db 9c3f 61a1 e83d 24e7 83c0
00000360: bcdf 91c0 8989 f23e 1fa1 07c0 ad87 813f
00000370: 241f 82bd 0aff 8e3e 83b2 8e3d cd00 b03e
00000380: cf4d 043f b439 62bd 552d 9540 4020 dd3f
00000390: 8792 5abc 5b05 0f3f 019d b23f 3e33 5ac0
000003a0: bee7 4ebe 63ac cb3f bc7f 00c0 b77f 8cbf
000003b0: 844f f2be 71b3 3abd 0fcb 06c0 04d5 55c0
000003c0: 0b8c 35bd a76f a7bd a410 bf3f 1fdf 9fc0
000003d0: cf66 f5bd 0c41 843c 0de9 49c0 7dea 42c0
000003e0: af16 9bbe 197f 96be 0c8d 0b40 5b0b 6cc0
000003f0: 8668 c83f 3440 e13e eb52 88bf 151b ecbf
1.3939213 -0.47765556 -1.2722638 1.0951742 1.7405927 3.4516673 -3.1046667 -3.4069433
0.4019405 0.26912874 3.2648005 -2.867268 0.26607674 0.06137975 0.10983958 0.3701681
-0.35889646 1.3946626 -0.30913576 2.4864225 0.32482725 0.8980767 1.0097977 0.15801916
1.5445136 0.84242076 -0.1836396 -1.7094392 -2.1794255 0.77646255 -2.4645147 -2.7262278
0.41699034 0.8778572 -0.033235658 -0.8468419 -0.23513903 -1.0105163 2.6350715 -3.9614954
-0.16585585 -2.520601 0.3601082 -1.3640717 0.76275176 1.3415613 0.56091326 -3.9249144
-0.035005867 0.075541325 0.21583617 -0.08208495 -9.790223 -0.63793546 0.39233905 0.12962607
0.45333484 1.3644491 -2.0681136 -1.6111417 -1.7389306 -1.9434632 -1.3427584 -1.4194964
-0.10457512 0.6971714 3.423965 -2.6517646 1.8631438 0.99033374 -0.29286283 -1.264671
-0.4992959 -0.09842832 -2.2014322 -1.3017172 0.7184204 0.81395197 2.1080027 -0.37996146
1.2764174 1.5481617 -1.2944275 -1.7891433 -0.94054955 0.71323586 -2.3732677 -2.3645558
-2.638211 0.32569614 -2.7774727 0.15511422 0.35267287 -2.0761943 -5.908704 0.17105766
2.0447247 1.0686916 -1.6811352 -1.4846567 0.89407307 -2.656701 0.3894701 -0.16680764
0.30620506 -0.29221645 6.088166 -0.1559667 -0.30701298 0.11954922 1.1328688 1.7998778
-0.08518786 -0.13214603 0.2517649 0.3466554 0.056208074 -0.019972567 0.087390706 -0.028212467
0.085121214 0.12038172 1.9990067 -1.8568509 1.0160477 -0.7271121 0.59662884 -3.0682313
0.5553087 -1.2205069 1.8969681 -3.2028656 0.85160613 -3.9701786 -6.322388 0.26332
-0.004220778 0.09274885 1.5133948 6.5864487 -0.005099421 -0.0010898578 0.5216665 -0.5395078
-0.31822297 0.019240579 4.3348255 1.0919771 0.2940412 0.45102757 -2.2814183 -0.13022958
-0.1918017 -0.68037677 -2.9050863 6.4241524 0.30489424 1.3536932 0.22033788 1.7977076
-2.5465574 0.67886984 -2.4266708 0.79098463 3.3510532 -1.2430933 -4.3421874 1.7530284
0.8922505 -0.07947983 2.5101793 -2.044991 0.3523956 -1.3720667 0.7101227 0.970701
-0.82372797 -0.83133185 -1.1366624 -1.1930836 0.33189338 2.202846 0.9180469 1.1486539
-0.804342 -0.26129925 3.0360012 -2.1170242 3.0767643 0.4664739 -1.0371151 -4.0602074
-0.19629765 -0.15515131 -2.3117962 2.642403 2.2189703 0.6930585 0.24735881 0.8704113
2.548212 0.14698017 1.1157714 -0.09330307 2.1500237 2.175185 1.9247794 -2.4104366
0.86454135 0.034540553 -0.27180907 -0.85078007 5.2201295 1.2254454 0.113589056 -4.1219654
-4.5585613 0.47370556 -2.119209 1.011953 -0.06353596 0.27928954 0.06967642 0.3437561
0.51681226 -0.05523081 4.6617837 1.7275467 -0.013340599 0.55867547 1.3954164 -3.4093776
-0.2020559 1.5911983 -2.0077963 -1.0976475 -0.4732629 -0.045581285 -2.1061437 -3.3411264
-0.04432301 -0.08175593 1.4926953 -4.9959865 -0.119825 0.016144298 -3.1548493 -3.045562
-0.30290744 -0.29393843 2.1804838 -3.688193 1.5656898 0.43994296 -1.0650305 -1.8445765

net.0.bias f4 [128]
00000000: 5e13 e5bf e172 1b3f f7bb 4a3e 83e0 cc3e
00000010: 99ac 94bf 3a5c b53f ae2d b7bd 2203 41be
00000020: 144d ae3e 976d c3be a17f 31be b3ed 9ebe
00000030: d5a7 ca3c af31 3a3d f080 97be 6b63 cd3e
00000040: e3fd d7bf 8520 8f3c 25be f1bd c7a4 62bf
00000050: 6030 d7bf 85e5 c9be 4cf6 6cbe 73fc 3b3d
00000060: ab24 15c0 490d 5dbd 132c 04bf af36 043d
00000070: 705d 093e 179f 88be 3897 74bc adb7 a83c
00000080: 64d4 5c3f 0553 b6bf 5ae2 1f3f 85e6 21bc
00000090: 2d43 023f 734b 403e 425c 873e e5db 9fbd
000000a0: 94a9 9d3e e525 6dbd 4161 29be b709 6e3b
000000b0: 9437 2b3f 4de9 9c3f e560 703f 5410 82bd
000000c0: 5bb1 3a3e 3792 e53f d126 d43d 0dd1 1bbe
000000d0: 25f7 1dbf bf98 953c d1b6 4a3f a837 213e
000000e0: e83f 83bf 4627 b83e e343 033f e4c4 553f
000000f0: a4b0 3d3e d9c1 293c 59e2 b13d b346 debf
00000100: 4cb9 1cbe 42a6 a33f 3867 de3d 1b5e 893f
00000110: ed97 d8bd d6d1 363f 3813 473e 53f0 dd3e
00000120: 1972 acbe 2b30 293e f066 0f3f 8870 853e
00000130: ce9b dbbe 1595 0cbd 23c3 d53e 4fbb 59bb
00000140: 389c 273f 9988 603d 529e e33e 4ce4 093e
00000150: 4cde b2be c929 06bf 548e 443f df17 d93e
00000160: 9c51 efbd 782b 8b3e dce5 2dbd aed7 ec3e
00000170: 2bce 1dbc d72a bf3d e116 4bbe af29 73bc
00000180: d298 2a3f 5389 5abe e194 2c3f 6751 843d
00000190: fbe8 71bf 4b0e e43e ee54 d6bf e593 003f
000001a0: bf8c e63e 35e5 b13b 0c4a 19be a33a 9b3e
000001b0: 456f 5c3e 5c08 87be 1f77 8bbc 7c53 21bd
000001c0: d379 253f 809a 933e eedf 71bf 679a 023f
000001d0: de75 ad3e 581a e13e a27a 37be 7ece ffbf
000001e0: ef23 9c3e 704e 513e b9ba 9e3e 5552 6dbe
000001f0: 55a3 dd3f 66ab 19bf a9fb b0be 685e d6bf
-1.7896535 0.60722166 0.19798265 0.4001504 -1.1615173 1.416877 -0.089442596 -0.18848851
0.3404318 -0.38169548 -0.17333843 -0.31040725 0.024738232 0.04545754 -0.2959056 0.40114912
-1.6874355 0.017471561 -0.11803845 -0.8853268 -1.6811638 -0.39432922 -0.2314083 0.04589505
-2.330363 -0.053967748 -0.5162975 0.032278713 0.1341455 -0.26683876 -0.0149286315 0.020595396
0.8626158 -1.4244086 0.6245476 -0.00988162 0.5088375 0.18778782 0.26437575 -0.078056134
0.3079344 -0.057897467 -0.16541006 0.0036321708 0.6688168 1.2258698 0.9389785 -0.063507706
0.18231718 1.7935246 0.10358966 -0.15216465 -0.6170524 0.018261312 0.79185206 0.15743887
-1.0253878 0.35967463 0.5127546 0.83503556 0.18524414 0.010361158 0.086857505 -1.7365326
-0.1530506 1.2785113 0.10859531 1.0731844 -0.105758525 0.71413934 0.19440925 0.43347415
-0.336808 0.16522281 0.56016445 0.26062417 -0.42892307 -0.034321863 0.4175044 -0.0033223217
0.65472746 0.05481777 0.44456726 0.13465995 -0.34935224 -0.5240751 0.76779675 0.42401025
-0.11685488 0.27181602 -0.04245554 0.462583 -0.009631674 0.09334343 -0.19832946 -0.014841481
0.66639435 -0.21341448 0.6741467 0.06460839 -0.94496125 0.44542155 -1.6744668 0.5022567
0.45029256 0.005428935 -0.14969653 0.30318174 0.21526821 -0.26373565 -0.017024575 -0.039386258
0.64639014 0.28828812 -0.94482315 0.5101685 0.33878988 0.4396541 -0.17917874 -1.9984891
0.30496165 0.20440078 0.31001833 -0.23175938 1.731547 -0.6002716 -0.34567 -1.674756

net.2.weight f4 [4, 128]
00000000: 35ec e9bf b484 8abf 70c9 6dbf 4696 dd3f
00000010: f6f1 08c0 15f0 08c0 774f a240 3c50 c63f
00000020: abdc f2bf 5b4c 95bd aefd cc3f 0d37 2dc0
00000030: fb78 d73f 848b 3e40 b780 a5bb cef0 a6bf
00000040: 9037 6ec0 66db 5340 3efa 8a3f f3de e8bf
00000050: b87d 71c0 5458 6c3f 1796 0bc0 1bfe 0f40
00000060: ab57 65c0 fde9 debf e8ad 3d40 c4c3 c0bf
00000070: 020f 3540 9b4c 773f df99 6940 ba85 5e40
00000080: 985a e6bf dbf0 6ac0 4b47 143f 85d2 c440
00000090: 144c 873f 4c15 453f f799 0940 a6c0 f83e
000000a0: b588 7a3f 909b 033c 4831 d1be cfcb b13f
000000b0: 3de0 f63f 8506 adbf ce0e 6fbf 7c1a 5940
000000c0: 7955 c5bf 0322 0440 68c3 afbf 6032 8f3c
000000d0: d24d 6140 1a74 7740 67a2 2dc0 c63d 35c0
000000e0: 6d2c 27c0 78b9 1d3f 577a a53f b99a 4d3f
000000f0: 72f8 efbf 6f6a 3440 ad93 fc3f 1fab 19c0
00000100: bab5 573f 1dc1 4b3f fcff f03f 538f 1ec0
00000110: 1fe3 a440 6e48 cabf 6f3a 0d40 6981 e6bf
00000120: 109b 003f 3a39 eabf 3527 bc3f 2f97 ea3f
00000130: e99c 8ac0 e627 6c40 9979 b03f 8766 d7bf
00000140: 72fe 833f b860 1c3f 0ff0 83bf 50a0 823f
00000150: b259 0cc0 92c8 bbbf 392f 35bf 7ee8 673f
00000160: ebda 45bf f938 fdbf f568 8640 c5cc 343f
00000170: 779c fb3f 3981 bcbf 1739 1fc0 7e82 b340
00000180: c242 b63f 0f6f 64c0 412d 34c0 5152 8b3f
00000190: bcfd 60c0 e527 0140 5d73 5ac0 474e 9b3f
000001a0: ddc1 ac3e 87f3 d53f 5e8a c6bf 1133 c13f
000001b0: 7b85 7f3f 550d 1e3f 3541 b640 e00a 8abf
000001c0: f62e bebe 1db6 d3bf fbf1 e1bf 04a5 18c0
000001d0: e8a5 44c0 7e9f 963f 89cb 28c0 ef16 8640
000001e0: 9a6f 053f 3f7d 58c0 9ede 233f ab5f d53f
000001f0: 8dde fb3f 8750 54c0 64a6 ab3f a1fd 84c0
00000200: 1116 7dbf 1362 bbbe ff5c aebf 487b 753f
00000210: 1ec6 90bf 6b12 0dc0 1254 8240 7d5c 1c40
00000220: b89c 28bf 7a45 80bf 023b f13f 8179 27c0
00000230: 2d99 e13f 0a23 8140 636b d13c 2e18 593d
00000240: 0e0f adc0 e810 4940 75bc 7bbf 44cf 13c0
00000250: e5db 76c0 ce8e 963f 81bf c0bf eadd 0940
00000260: 6704 6fc0 c14c 0ac0 2df1 3440 f37b ffbf
00000270: cdf3 6b40 7dfe 1640 2535 1140 bc2b 0640
00000280: b28c 19c0 268b 54c0 b33e 463f 57a9 9f40
00000290: 3af3 863f 0ee9 1040 2245 cf3f 8d67 3c3e
000002a0: 85e9 6b3f 4e34 bebc f0e4 d63e 103b cc3f
000002b0: 1aeb d93f 100a 8abf cfdf 03bf 1f2b 4b40
000002c0: 5ce0 d9bf 2083 f23f bad4 08bf e325 85bc
000002d0: 898b 8840 10cc a240 3143 30c0 683f 7ac0
000002e0: 35fd 3fc0 467d 6d3f 7313 d53f 1fe0 053f
000002f0: 4aee 15c0 5141 4240 8794 3c40 0389 f9bf
00000300: 708c 913e 1844 3b3f 762a 4240 0535 14c0
00000310: 54f2 5340 e74e bfbf 366f 713f aed4 01c0
00000320: 4ecd 96bd a23f 8abf 2c51 c93f 626b f83f
00000330: 17f7 76c0 cdbf 2740 008f 823f df5c e6bf
00000340: 3bda 9c3f 1d3b df3f 4eca 99bf 9611 533f
00000350: ce76 49c0 0b40 12c0 15a7 f5bf c054 453f
00000360: a5a5 3940 b8ed 08c0 6c38 c13f 4b33 193f
00000370: 95a8 2c40 207f 16c0 256e 1ac0 648a d840
00000380: 18ab b43f 43e4 81c0 8194 4bc0 5050 e93d
00000390: f942 70c0 9084 3340 3136 78c0 ce1f 193f
000003a0: 46e6 3d3f bbc3 4f40 4be0 c6bf 4b79 4840
000003b0: 9b2b 113f 5e33 083f 58cf 8740 741e 50bf
000003c0: 179c a6bf b149 a4bf cada 2ac0 f635 0dc0
000003d0: c4e6 52c0 30c8 8b3f 6ad5 88bf 7420 b940
000003e0: 61f3 8a3f 8633 0dc0 ea9b 1d3f 5eef c43f
000003f0: 3d59 0340 e89f 2ac0 c1dd 8c3f 47d8 99c0
-1.827521 -1.0821748 -0.92885494 1.7311485 -2.1397681 -2.1396534 5.0722003 1.5493236
-1.8973593 -0.07289954 1.6014917 -2.706485 1.6833795 2.9772654 -0.0050507444 -1.3042238
-3.7221413 3.310266 1.0857618 -1.8193039 -3.7732983 0.9232228 -2.1810358 2.2498844
-3.5834758 -1.7415158 2.9637394 -1.5059743 2.829041 0.96601266 3.6500165 3.476912
-1.7996397 -3.6709507 0.57921284 6.150698 1.0570092 0.7698562 2.1500223 0.4858448
0.9786485 0.008032694 -0.4085791 1.3890322 1.9287182 -1.3517615 -0.93381965 3.3922415
-1.5416709 2.064576 -1.3731508 0.017480075 3.5203748 3.8664613 -2.7130373 -2.8318954
-2.6120865 0.6161113 1.292796 0.80314213 -1.8747694 2.8189962 1.9732567 -2.4010694
0.8426167 0.7959154 1.882812 -2.4774978 5.1527247 -1.5803354 2.2066915 -1.8008243
0.50236607 -1.8298714 1.4699465 1.8327388 -4.331654 3.6899352 1.3787109 -1.6828164
1.0312026 0.6108508 -1.0307635 1.0205173 -2.1929746 -1.4670584 -0.7077518 0.9058913
-0.7728717 -1.9783012 4.200312 0.70624954 1.9657124 -1.4726936 -2.4878595 5.609679
1.4239123 -3.5692785 -2.815262 1.0884496 -3.5154867 2.01806 -3.4132912 1.2133263
0.33741656 1.6714944 -1.5510976 1.5093709 0.9981305 0.61739093 5.69546 -1.0784569
-0.37145203 -1.6539952 -1.7651972 -2.3850718 -3.072626 1.1767423 -2.6374228 4.1902995
0.52123415 -3.3826444 0.6401156 1.666982 1.9677292 -3.317415 1.3410153 -4.1559606
-0.98861796 -0.36598262 -1.362213 0.9589124 -1.131046 -2.2042491 4.0727625 2.443145
-0.65864134 -1.0021203 1.8846133 -2.616791 1.762487 4.035527 0.025563901 0.053001575
-5.4080877 3.1416569 -0.9833444 -2.3095255 -3.8571713 1.176233 -1.5058442 2.1541696
-3.7346437 -2.1609347 2.8272202 -1.9959701 3.6867554 2.3592827 2.2688687 2.0964193
-2.3992124 -3.320993 0.7743942 4.9894214 1.0542977 2.2642245 1.6192973 0.18398876
0.921532 -0.0232183 0.4197154 1.5955524 1.7024872 -1.0784321 -0.5151338 3.174507
-1.7021594 1.8946266 -0.53449595 -0.016253417 4.267033 5.08741 -2.754101 -3.91012
-2.9998295 0.9276928 1.664656 0.52295107 -2.342669 3.0352366 2.9465654 -1.9494938
0.28427458 0.7315078 3.0338416 -2.315736 3.3116655 -1.4945954 0.9431032 -2.028606
-0.073633775 -1.0800669 1.5727897 1.9407771 -3.8588312 2.6210816 1.019989 -1.7997092
1.2254099 1.7439915 -1.2014863 0.8244871 -3.1478763 -2.2851589 -1.9191614 0.77082443
2.9007351 -2.1395092 1.5095344 0.5984389 2.6977894 -2.351509 -2.4129727 6.7668934
1.4114714 -4.059114 -3.180939 0.113922715 -3.7540877 2.804966 -3.8783076 0.59814155
0.74179494 3.2463214 -1.5537199 3.1324031 0.5670716 0.5320338 4.2440605 -0.8129647
-1.3016385 -1.2834989 -2.6696038 -2.2064185 -3.2953348 1.0920467 -1.0690129 5.7852116
1.0855523 -2.2062697 0.6156603 1.5385549 2.0523217 -2.66601 1.1005174 -4.807651

net.2.bias f4 [4]
00000000: 5761 0c3f ffac 033f 5f05 7a3e c5c9 823e
0.5483603 0.51435846 0.24416111 0.25544563
