main-checkpoints/Q net params Checkpoint 3.pth (torch, 9056 bytes, 4 tensors)

net.0.weight f4 [128, 8]
0	0x3edc2f7d	0.4300498
1	0x3e7f220e	0.24915335
2	0xbf1d687e	-0.6148757
3	0x3f2cc5e7	0.67489475
4	0x3f887b31	1.0662595
5	0x4042eed9	3.045828
6	0xc041c228	-3.0274754
7	0xc03a231a	-2.9083924
8	0x3e96913d	0.29407683
9	0x3d8c0110	0.0683614
10	0x403b321f	2.9249341
11	0xc01c5a56	-2.4430137
12	0x3ec8efcf	0.3924546
13	0xbd9eb790	-0.077498555
14	0x3d7b0a62	0.0612892
15	0x3eb7552c	0.35807168
16	0x3e1ceab6	0.1532391
17	0x3f7d3feb	0.98925656
18	0xbe3226bd	-0.1739759
19	0x40162bb0	2.3464165
20	0x3f480b6e	0.7814244
21	0x3f9a172c	1.2038321
22	0x3f817c87	1.0116128
23	0xbd546222	-0.0518514
24	0x3fe37e6d	1.7772957
25	0x3f45e83c	0.77307487
26	0xbe7b3613	-0.24532346
27	0xbfd237db	-1.6423296
28	0xbf88ce2b	-1.0687917
29	0x3eb65d9b	0.3561829
30	0xc01db97a	-2.4644456
31	0xc02e7a98	-2.7262325
32	0x3f5b05f0	0.85555935
33	0x3f05f303	0.5232393
34	0x3e1c9e91	0.15294863
35	0xbfad82ac	-1.3555503
36	0xbe956a24	-0.2918254
37	0xbf18348d	-0.59455186
38	0x4036c9e7	2.8560731
39	0xc07d8922	-3.961495
40	0xbb92e531	-0.004482888
41	0xc01a1698	-2.407629
42	0xbc05b1c9	-0.008160063
43	0xbfb7734f	-1.4332064
44	0x3ee3c5e1	0.44486907
45	0x3f9b36d5	1.2126108
46	0x3f396e5a	0.7243401
47	0xc07b1c74	-3.9236116
48	0xbdc1cfea	-0.094634846
49	0x3d8b3964	0.06798056
50	0x3e90594f	0.28193137
51	0x3d775cb5	0.060391147
52	0xc11a5fb2	-9.648363
53	0xbee51252	-0.4474054
54	0x3f25dfae	0.64794433
55	0xbdf4b8cd	-0.119493105
56	0x3f2ef606	0.6834415
57	0x3f84a534	1.0362916
58	0xbffc60f0	-1.9717083
59	0xbfeb86d2	-1.8400519
60	0xc0001a70	-2.0016136
61	0xbfe63d4c	-1.7987456
62	0xc0447f2e	-3.0702624
63	0xbfc8f86c	-1.5700812
64	0x3e4293d9	0.19001712
65	0x3f0c3f76	0.54784334
66	0x406ffd57	3.7498376
67	0xc0155ee2	-2.3339162
68	0x3fd5138f	1.6646594
69	0x3f70fb16	0.94133127
70	0xbe8d3aba	-0.27583867
71	0xbf69dc74	-0.9135201
72	0xbee65e6e	-0.4499392
73	0xbece6503	-0.4031144
74	0xc0264f80	-2.5986023
75	0xbf82e149	-1.0225002
76	0x3f2d8fc7	0.6779751
77	0x3f15bd53	0.5849201
78	0x3fdd37ea	1.7282689
79	0xbf54f10c	-0.8318031
80	0x3fd0d013	1.6313499
81	0x3faa635e	1.3311574
82	0xbfb336fa	-1.4001153
83	0xbfef0c07	-1.8675545
84	0xbf2497b1	-0.6429396
85	0x3f559cec	0.8344257
86	0xc0165d59	-2.3494475
87	0xc01758a3	-2.364785
88	0xc02904bf	-2.6409147
89	0x3ed86142	0.42261702
90	0xc0385cac	-2.8806562
91	0x3f365dd6	0.7123693
92	0xbea80962	-0.3281966
93	0xc013db0e	-2.310245
94	0xc0ae1369	-5.4398694
95	0x3df226e3	0.11823823
96	0x3f7994f5	0.97492915
97	0x3f63ed9f	0.89034456
98	0xbf810ad3	-1.0081428
99	0xbfaef29a	-1.3667786
100	0x3ee86b64	0.45394433
101	0xc0452b16	-3.0807548
102	0x3ed484df	0.41507623
103	0xbec6069e	-0.38676924
104	0x3e6a9e5d	0.22911973
105	0xbe00580b	-0.12533586
106	0x40c317ea	6.096669
107	0x3dc473d8	0.09592408
108	0x3e98bda6	0.2983219
109	0x3ed9f5cf	0.4257035
110	0x3f92d181	1.1470186
111	0x3fdccc83	1.7249912
112	0xbdae7a97	-0.08519476
113	0xbe074f1f	-0.13213776
114	0x3e80ea60	0.25178814
115	0x3eb18009	0.34667996
116	0x3d66384f	0.056206044
117	0xbca3a136	-0.019974332
118	0x3db2faf3	0.08739271
119	0xbce71dd5	-0.028212467
120	0x3ea849f5	0.32868925
121	0x3e208c83	0.15678601
122	0x400e427d	2.2228081
123	0xbfcab311	-1.5835897
124	0x3f8c8668	1.0978518
125	0x3e4a807a	0.19775572
126	0x3f53a6cf	0.82676405
127	0xc0445c3a	-3.068129
128	0x3fa1e564	1.264813
129	0xbf811700	-1.0085144
130	0x3f50ba43	0.8153421
131	0xc00407f5	-2.0629857
132	0xbf5a00c7	-0.85157436
133	0xc07a2927	-3.9087617
134	0xc0b56192	-5.6681604
135	0x3f354059	0.7080131
136	0x3dd21997	0.10258787
137	0xbe0c5791	-0.13705279
138	0x3feb74b4	1.839499
139	0x40ad743a	5.420438
140	0xbe570271	-0.20997025
141	0x3f6f8893	0.9356777
142	0x3f2db896	0.6785978
143	0xbf38cfec	-0.72192264
144	0xbdbcc4dc	-0.092172354
145	0xbdaa3889	-0.083115645
146	0x4080ac65	4.0210443
147	0x3f6518ee	0.89491165
148	0x3ec17992	0.37788063
149	0x3f32a117	0.69777054
150	0xc01587ca	-2.336413
151	0xbdaa2448	-0.08307701
152	0xbf401a0d	-0.7503975
153	0x3d8c0fbc	0.068389386
154	0xc031380b	-2.7690456
155	0x40a41d80	5.128601
156	0x3ca65520	0.020304263
157	0x3f96935b	1.1763719
158	0x3e86e0fe	0.2634353
159	0x3fbcc572	1.4747756
160	0xbf83c7a1	-1.0295297
161	0x3f015524	0.5052054
162	0xc02bd9de	-2.6851726
163	0x3f0bd1bf	0.5461692
164	0x401457bb	2.3178546
165	0xc014a85a	-2.3227754
166	0xc0874b37	-4.2279315
167	0x3fbcd3d5	1.4752146
168	0x3e6195f0	0.22029853
169	0xbe1952e9	-0.14973034
170	0x401067ea	2.2563424
171	0xc0083387	-2.128145
172	0x3f2e0f1f	0.6799182
173	0xbfd70242	-1.6797564
174	0x3ed541c9	0.41651753
175	0x3f6c4ecb	0.9230773
176	0xbf06db64	-0.52678514
177	0xbf93ddeb	-1.1552099
178	0xbfb89fef	-1.4423808
179	0xbfb62845	-1.4231039
180	0xbe45d29b	-0.19318621
181	0x4013b6c7	2.3080308
182	0x3f605416	0.87628305
183	0x3f9bb195	1.2163569
184	0xbf0052f4	-0.50126576
185	0xbe67f545	-0.22652157
186	0x402e8269	2.7267096
187	0xc0127ae7	-2.2887514
188	0x40323113	2.7842453
189	0x3d9a68e8	0.075395405
190	0xbf062b5f	-0.5240993
191	0xc081ec32	-4.0600824
192	0x3f1708f9	0.58998066
193	0xbf2eb646	-0.6824688
194	0xc0406de6	-3.0067077
195	0x401346ab	2.3011882
196	0x4036af61	2.8544543
197	0x3e82315e	0.2542829
198	0x3ef94bed	0.4869074
199	0x3f3289fd	0.69741803
200	0x40318f90	2.7743874
201	0x3ea0ed26	0.3143093
202	0x3f91acc6	1.1380851
203	0xbe66a4fc	-0.22523874
204	0x4016002c	2.3437605
205	0x401570d9	2.3350127
206	0x3fd91dfd	1.6962277
207	0xc019b0dc	-2.4014196
208	0x3f2cee9c	0.6755159
209	0xbcbd94f1	-0.02314231
210	0xbf05bf55	-0.52245075
211	0xbf5376e7	-0.82603306
212	0x40a72ce8	5.2242317
213	0x3fb7d8d8	1.436305
214	0xbf0729ea	-0.5279833
215	0xc072b760	-3.7924423
216	0xc077e00a	-3.8730493
217	0x3f27be8d	0.6552513
218	0xbff2dd93	-1.8973869
219	0x3fb78356	1.4336956
220	0x3ea291d2	0.31751877
221	0x3e342d82	0.17595485
222	0xbdda7edc	-0.10668728
223	0x3eef723c	0.4676684
224	0x3e7e2f61	0.24822761
225	0x3e281bbe	0.16416833
226	0x409a2645	4.8171716
227	0x4010ff0b	2.2655666
228	0x3eb1ffa9	0.34765366
229	0x3f0e099b	0.55483407
230	0x3fa6d113	1.3032554
231	0xc05a3225	-3.4093106
232	0xbce80fde	-0.028327879
233	0x3faa555b	1.3307298
234	0xbfe6947c	-1.8014064
235	0xbf9eb49c	-1.2398868
236	0xbeede46b	-0.46463332
237	0x3d17c414	0.03705223
238	0xc006ca4e	-2.1060977
239	0xc055d4f1	-3.341122
240	0x3dbb14ed	0.09134851
241	0xbd8c88a6	-0.06862001
242	0x3f96c582	1.1779025
243	0xc09c458a	-4.8834887
244	0xbe4a866d	-0.19777842
245	0x3e360b7b	0.17777817
246	0xc049e637	-3.1546762
247	0xc0385623	-2.8802574
248	0xbe594c87	-0.21220599
249	0xbe44f00d	-0.19232197
250	0x3ff46c2d	1.9095513
251	0xc06584be	-3.586227
252	0x3fb1f9c0	1.3904343
253	0x3f3263a4	0.6968329
254	0xbf920aed	-1.1409584
255	0xbfe1e984	-1.7649388

net.0.bias f4 [128]
0	0xbf810655	-1.0080057
1	0x3f073004	0.5280764
2	0x3ee74336	0.45168465
3	0x3efd9535	0.49527898
4	0xbf8f4eb7	-1.1195897
5	0x3f93d438	1.1549139
6	0xbdbb29c0	-0.091388226
7	0x3b99c31a	0.0046924474
8	0x3ea2278a	0.3167079
9	0xbe535c85	-0.20640762
10	0xbda8c0c9	-0.08239896
11	0xbd8746e7	-0.066053204
12	0x3d8912a3	0.06693008
13	0x3d44d58a	0.04805521
14	0xbe977fb4	-0.29589617
15	0x3ea8c1da	0.32960397
16	0xbfa1d37f	-1.2642668
17	0x3d38efdb	0.04515062
18	0xbdce15ab	-0.100627266
19	0xbf6d54fc	-0.927078
20	0xbfafdadf	-1.3738669
21	0xbeca680a	-0.395325
22	0xbe39152f	-0.18074487
23	0xbc52ad7a	-0.012858743
24	0xc0043915	-2.065984
25	0xbd7813c8	-0.06056574
26	0xbed3a908	-0.41339898
27	0x3da5bb1e	0.080923304
28	0x3db791fa	0.0896339
29	0xbe09fc36	-0.13475117
30	0xbc9f97c1	-0.019481542
31	0x3cbb757d	0.022883171
32	0x3f1b546f	0.6067571
33	0xbf8dec6d	-1.1087776
34	0x3edbd8a5	0.42938724
35	0xb8e3443d	-0.00010836914
36	0x3ef69bae	0.4816565
37	0xbd730851	-0.059334103
38	0xbb0e10a1	-0.0021677392
39	0xbc14d7a7	-0.009084619
40	0x3e81197f	0.25214764
41	0x3dce7e0c	0.10082635
42	0xbe224e69	-0.15850224
43	0xbe5ff72b	-0.21871631
44	0x3f305167	0.6887421
45	0x3f959d0b	1.1688551
46	0x3f4a8b78	0.7911906
47	0xbe067302	-0.1312981
48	0x3e74c7ab	0.23904292
49	0x3fd5da99	1.6707336
50	0x3e5e22fd	0.21693034
51	0xbe1bd130	-0.15216517
52	0xbf0a8dfe	-0.5412291
53	0x3cc30059	0.023803877
54	0x3f32f22c	0.69900775
55	0xbd97914b	-0.07400759
56	0xbf139102	-0.5764314
57	0x3e855713	0.26042995
58	0x3e66fe3e	0.22557923
59	0x3f4b413a	0.793964
60	0x3dbd1fd4	0.09234586
61	0x3cea33ad	0.028589094
62	0x3e83d44a	0.257479
63	0xbf8cdf3f	-1.1005629
64	0xbd007aea	-0.03136722
65	0x3fa2d3b9	1.2720863
66	0x3e209f1a	0.15685692
67	0x3f4e5c15	0.80609256
68	0xbe56b864	-0.20968777
69	0x3f25a100	0.6469879
70	0x3de6e098	0.112733066
71	0x3e9b472a	0.3032773
72	0xbe3f293c	-0.18668073
73	0x3dd19221	0.1023295
74	0x3f1c3c91	0.61029917
75	0x3eaf8738	0.3428285
76	0xbf173b6e	-0.5907506
77	0x3ba797db	0.005114538
78	0x3e520fa9	0.20513786
79	0x3d6471e6	0.055772685
80	0x3f13981e	0.5765399
81	0xbdefcaf5	-0.11708633
82	0x3eb6c536	0.35697335
83	0x3e9a5696	0.30144185
84	0xbef584c9	-0.4795287
85	0xbed79700	-0.4210739
86	0x3f1b0982	0.6056138
87	0x3ee34f11	0.4439626
88	0xbd9583c5	-0.07300524
89	0x3e501d3c	0.20323652
90	0xbd8a4095	-0.06750599
91	0x3eabb2dc	0.33534896
92	0xbc10b83a	-0.008832986
93	0x3e1e39fd	0.15451808
94	0x3d22025b	0.039553028
95	0x3cc1d9d3	0.023663437
96	0x3ec7ea21	0.39045814
97	0xbf6231db	-0.88357323
98	0x3f014811	0.5050059
99	0x3e26c41c	0.16285747
100	0xbf6fa979	-0.9361797
101	0x3ea9b750	0.3314767
102	0xbf851b6f	-1.0398997
103	0x3ed90132	0.42383724
104	0x3ea7683b	0.3269671
105	0x3de2f2e0	0.11081481
106	0xbeb14faf	-0.34631106
107	0x3e42f56c	0.19038934
108	0x3def9782	0.1169882
109	0xbd8e8c63	-0.069603704
110	0xbce8e80d	-0.028430963
111	0xbd882b9c	-0.06648943
112	0x3f286d50	0.657918
113	0x3ecd9088	0.4014933
114	0xbf6cbb1f	-0.92473024
115	0x3ecf3b34	0.40474856
116	0x3e87ffdc	0.26562393
117	0x3e4995ce	0.19686052
118	0xbdf5e5c8	-0.12006718
119	0xbfe711fe	-1.8052366
120	0x3e7c26bf	0.24624155
121	0x3e46dbfb	0.19419853
122	0x3ea6cc7b	0.3257788
123	0xbe49da4a	-0.19712177
124	0x3fd02c42	1.6263506
125	0xbe803b25	-0.25045124
126	0xbe83ab73	-0.25716743
127	0xbfe6be73	-1.802687

net.2.weight f4 [4, 128]
0	0xc0497de0	-3.1483078
1	0xbf6c4bfe	-0.92303455
2	0xbf486426	-0.78277814
3	0x3fc0c9dc	1.5061603
4	0xc007b3fe	-2.1203609
5	0xbffadbb7	-1.9598302
6	0x409abd41	4.8356023
7	0x3fb5683e	1.4172437
8	0xbfe863dd	-1.8155476
9	0xbd5bd84b	-0.05367307
10	0x3fbf947b	1.4967188
11	0xc02e4151	-2.7227366
12	0x3faff31d	1.3746067
13	0x403ffd4c	2.999835
14	0xbba581af	-0.00505086
15	0xbf933495	-1.1500422
16	0xc0886d02	-4.2633066
17	0x4037491e	2.8638377
18	0x3f8dffdc	1.1093707
19	0xbfc63c42	-1.5487139
20	0xc05d2e79	-3.4559615
21	0x3f5c3bbe	0.8602866
22	0xc00a457a	-2.1604905
23	0x3fec6e80	1.8471222
24	0xc09a8957	-4.829265
25	0xc0051947	-2.0796678
26	0x4047901e	3.1181712
27	0xbfcb342b	-1.5875295
28	0x403ea285	2.9786694
29	0x3f708ce7	0.93965
30	0x405945c2	3.3948827
31	0x4046b1c7	3.1046007
32	0xbfea4c8a	-1.8304608
33	0xc0852b0b	-4.1615043
34	0x3f28ca95	0.65934116
35	0x40b399aa	5.612508
36	0x3f8bf030	1.0932674
37	0x3f20f868	0.6287904
38	0x40024b57	2.0358484
39	0x3f16d016	0.58911264
40	0x3f84edc2	1.0385058
41	0x3e8c8367	0.27444002
42	0xbe87a164	-0.2649032
43	0x3fbe4736	1.4865482
44	0x3fa4642b	1.2843069
45	0xbfd0ff89	-1.6327983
46	0xbf527e8c	-0.82224345
47	0x4053ae1f	3.3075025
48	0xbfa1274b	-1.2590116
49	0x4007ab80	2.1198425
50	0xbfc6cd14	-1.5531335
51	0x3c8f3694	0.01748208
52	0x4046af15	3.1044362
53	0x409e71e1	4.951401
54	0xbff8bd72	-1.9432814
55	0xc047bac8	-3.1207752
56	0xc015cfab	-2.3408
57	0x3f22835e	0.634817
58	0x3f84f3a7	1.0386857
59	0x3f57b23e	0.8425635
60	0xc01eb71b	-2.4799259
61	0x400e6c97	2.2253778
62	0x3fcd8748	1.605691
63	0xc02971cd	-2.6475708
64	0x3f1f5915	0.62245303
65	0x3f4d22f9	0.8013149
66	0x3ff04572	1.8771193
67	0xc00b0204	-2.171998
68	0x408668fe	4.2003164
69	0xbfce70b0	-1.612814
70	0x400829fd	2.1275628
71	0xbfeb7c3e	-1.8397291
72	0x3ece42e1	0.402854
73	0xbfefd0f6	-1.8735645
74	0x3fae3cc9	1.36123
75	0x3fd6dc8b	1.6786054
76	0xc07800e5	-3.8750546
77	0x4079e268	3.9044437
78	0x3fb087b2	1.3791411
79	0xbfd0c74d	-1.6310822
80	0x3f72890b	0.9474036
81	0x3f005648	0.50131655
82	0xbfa0df2e	-1.2568109
83	0x3f7c336f	0.9851598
84	0xc00cba13	-2.198857
85	0xbfc65a88	-1.5496378
86	0xbf52da8f	-0.82364744
87	0x3f63f526	0.8904594
88	0x3f15ac5a	0.5846611
89	0xbff4a0d2	-1.9111578
90	0x405cd8f2	3.4507413
91	0x3edabde8	0.42723012
92	0x3fece8d3	1.8508552
93	0xbfad480f	-1.3537616
94	0xc0185936	-2.380445
95	0x40aee06c	5.4648952
96	0x3fbef8e7	1.4919709
97	0xc0a9bdf1	-5.304436
98	0xc031da79	-2.7789595
99	0x3f89a273	1.07527
100	0xc0799c63	-3.90017
101	0x3ff7902f	1.9340876
102	0xc04df71e	-3.2182078
103	0x3f8bddf4	1.092711
104	0x3ee29605	0.4425508
105	0x3fcefc3b	1.6170725
106	0xbfcc3025	-1.5952193
107	0x4016ad04	2.35431
108	0x3f806332	1.0030272
109	0x3f27c028	0.6552758
110	0x40aaa5c8	5.332737
111	0xbf5077f7	-0.8143305
112	0xbea3f4d4	-0.32022727
113	0xbfd21861	-1.641369
114	0xc0036645	-2.053117
115	0xc016d45d	-2.3567116
116	0xc02db336	-2.7140632
117	0x3f5d73bd	0.8650473
118	0xbffc98a1	-1.9734079
119	0x408be48f	4.37165
120	0x3f2111d6	0.6291784
121	0xc035ab92	-2.8385968
122	0x3f23b006	0.63940465
123	0x3fc6e431	1.5538388
124	0x400261e1	2.037224
125	0xbfeb0d0f	-1.836336
126	0x3f96e3c5	1.178826
127	0xc088cd3d	-4.2750535
128	0xbf3db47f	-0.7410354
129	0xbebd25bd	-0.36942855
130	0xbf9e4500	-1.2364807
131	0x3f7f4a4b	0.9972274
132	0xbfb27e55	-1.3944803
133	0xbfee2016	-1.8603542
134	0x40758519	3.8362486
135	0x4015706e	2.3349872
136	0xbf16fca5	-0.58979255
137	0xbf77b744	-0.96764016
138	0x3ff25037	1.893073
139	0xc02184fe	-2.5237422
140	0x3fac2f95	1.3452021
141	0x4075b666	3.8392577
142	0x3cd16fec	0.025566064
143	0x3e1eb5e7	0.15499078
144	0xc0889854	-4.2685947
145	0x4049307c	3.1435843
146	0xbf88705c	-1.0659289
147	0xbffa1b42	-1.9539568
148	0xc07489f3	-3.8209198
149	0x3f850342	1.0391619
150	0xbfca38e2	-1.5798609
151	0x3ff9ad36	1.9505985
152	0xc0884b88	-4.25922
153	0xc0130097	-2.296911
154	0x40062033	2.0957153
155	0xbfec2472	-1.8448622
156	0x407c063f	3.9378812
157	0x40054a03	2.0826423
158	0x40136174	2.302823
159	0x3fe2046a	1.7657597
160	0xc0054d7e	-2.0828547
161	0xc048bae0	-3.136406
162	0x3f3472b7	0.7048754
163	0x409dd3cf	4.9321055
164	0x3f6daa6d	0.92838174
165	0x401c4c14	2.4421434
166	0x3fc29f01	1.5204774
167	0x3ecdcc35	0.4019486
168	0x3f61b282	0.88163006
169	0xbca7a1de	-0.020462926
170	0x3f272f17	0.6530623
171	0x40004499	2.0041869
172	0x3f9c1c28	1.2196093
173	0xbf8fad1f	-1.1224707
174	0xbf1d450b	-0.61433476
175	0x407478d5	3.819875
176	0xbfcea015	-1.6142603
177	0x4001eb6f	2.0299947
178	0xbf23adb3	-0.6393692
179	0xbc852854	-0.016254582
180	0x4081ba93	4.054025
181	0x40a0881d	5.0166154
182	0xc0255316	-2.5831962
183	0xc07b08dc	-3.9224157
184	0xc04e1ade	-3.2203898
185	0x3f6b8d6b	0.9201266
186	0x3f9b425c	1.2129626
187	0x3f015ded	0.50533944
188	0xc02b2d79	-2.6746504
189	0x40187b2c	2.3825178
190	0x402da4d7	2.713186
191	0xbfbc6551	-1.4718419
192	0x3e6d26ef	0.23159383
193	0x3f50022b	0.8125331
194	0x403d8b91	2.9616435
195	0xc01415ac	-2.3138227
196	0x405a5465	3.411401
197	0xbfbd797b	-1.4802698
198	0x3f4d562d	0.8020962
199	0xc00378af	-2.054241
200	0xbe66a5ce	-0.22524187
201	0xbf9bf01f	-1.2182654
202	0x3fc316ce	1.5241334
203	0x3ff61ef2	1.9228194
204	0xc0823440	-4.068878
205	0x403d4ff8	2.958006
206	0x3f879c9c	1.0594668
207	0xbff6c9a6	-1.9280288
208	0x3fa09f4b	1.2548612
209	0x3f73f320	0.95292854
210	0xbfdab6c4	-1.7087026
211	0x3f334985	0.70034057
212	0xc03f10c6	-2.9853988
213	0xc00c99f6	-2.196897
214	0xbfda0707	-1.7033395
215	0x3f1e5956	0.61855066
216	0x40499c3a	3.1501603
217	0xbff54c82	-1.9163973
218	0x3f5324f2	0.8247825
219	0x3f0ed986	0.55800664
220	0x4039c5a5	2.9026883
221	0xc00c063e	-2.187881
222	0xc011636b	-2.271693
223	0x40def7cd	6.967749
224	0x3faf44fa	1.3692925
225	0xc07ee3bf	-3.9826505
226	0xc043f356	-3.061727
227	0x3e18509f	0.14874505
228	0xc048764a	-3.1322198
229	0x40387d51	2.8826487
230	0xc0666757	-3.6000574
231	0x3f0bf147	0.54665035
232	0x3f005906	0.5013584
233	0x401df2a7	2.4679353
234	0xc0083905	-2.1284802
235	0x405848ca	3.3794427
236	0x3f20bf0e	0.62791526
237	0x3f4492c4	0.76786447
238	0x40851dcf	4.1598887
239	0xbf28a9c1	-0.65884024
240	0xbfa37e9a	-1.2773011
241	0xbfa98370	-1.3243237
242	0xc0352537	-2.8303964
243	0xc0016055	-2.0215046
244	0xc0435870	-3.0522728
245	0x3ebf0814	0.3731085
246	0xbf639623	-0.88900965
247	0x40926637	4.5749774
248	0x3f90621e	1.1279943
249	0xbfe8a5a2	-1.8175547
250	0x3f24959a	0.64290774
251	0x3fb3863d	1.4025341
252	0x4001143e	2.0168605
253	0xc008ec92	-2.139439
254	0x3f97da87	1.1863564
255	0xc09dc310	-4.9300613

net.2.bias f4 [4]
0	0x3eeeb874	0.46625102
1	0x3efc25dc	0.49247634
2	0x3e105756	0.14095816
3	0x3e9ca193	0.3059202
